…
s passed back to the model input from the output.&lt;/p&gt;

&lt;pre&gt;
__________________________________________________________________________________________________
Layer (type)                    Output Shape         Param #     Connected to                     
==================================================================================================
input_imgs (InputLayer)         [(None, 12, 128, 256 0                                            
__________________________________________________________________________________________________
permute (Permute)               (None, 128, 256, 12) 0           input_imgs[0][0]                 
__________________________________________________________________________________________________
efficientnet-b2 (Model)         (None, 4, 8, 1408)   6442016     permute[0][0]                    
__________________________________________________________________________________________________
conv2d (Conv2D)                 (None, 4, 8, 32)     45088       efficientnet-b2[1][0]            
__________________________________________________________________________________________________
batch_normalization (BatchNorma (None, 4, 8, 32)     128         conv2d[0][0]                     
__________________________________________________________________________________________________
elu (ELU)                       (None, 4, 8, 32)     0           batch_normalization[0][0]        
__________________________________________________________________________________________________
desire (InputLayer)             [(None, 8)]          0                                            
__________________________________________________________________________________________________
traffic_convention (InputLayer) [(None, 2)]          0                                            
__________________________________________________________________________________________________
vision_features (Flatten)       (None, 1024)         0           elu[0][0]                        
__________________________________________________________________________________________________
snpe_desire_pleaser (Dense)     (None, 8)            72          desire[0][0]                     
__________________________________________________________________________________________________
snpe_traffic_pleaser (Dense)    (None, 2)            6           traffic_convention[0][0]         
__________________________________________________________________________________________________
proc_features (Concatenate)     (None, 1034)         0           vision_features[0][0]            
                                                                 snpe_desire_pleaser[0][0]        
                                                                 snpe_traffic_pleaser[0][0]       
__________________________________________________________________________________________________
pre_gru_dense (Dense)           (None, 1024)         1059840     proc_features[0][0]              
__________________________________________________________________________________________________
re_lu (ReLU)                    (None, 1024)         0           pre_gru_dense[0][0]              
__________________________________________________________________________________________________
rnn_state (InputLayer)          [(None, 512)]        0                                            
__________________________________________________________________________________________________
rnn_r (Dense)                   (None, 512)          524800      re_lu[0][0]                      
__________________________________________________________________________________________________
rnn_rr (Dense)                  (None, 512)          262656      rnn_state[0][0]                  
__________________________________________________________________________________________________
snpe_pleaser (Dense)            (None, 512)          262656      rnn_state[0][0]                  
__________________________________________________________________________________________________
add_1 (Add)                     (None, 512)          0           rnn_r[0][0]                      
                                                                 rnn_rr[0][0]                     
__________________________________________________________________________________________________
rnn_z (Dense)                   (None, 512)          524800      re_lu[0][0]                      
__________________________________________________________________________________________________
rnn_rz (Dense)                  (None, 512)          262656      rnn_state[0][0]                  
__________________________________________________________________________________________________
rnn_rh (Dense)                  (None, 512)          262656      snpe_pleaser[0][0]               
__________________________________________________________________________________________________
activation (Activation)         (None, 512)          0           add_1[0][0]                      
__________________________________________________________________________________________________
add (Add)                       (None, 512)          0           rnn_z[0][0]                      
                                                                 rnn_rz[0][0]                     
__________________________________________________________________________________________________
rnn_h (Dense)                   (None, 512)          524800      re_lu[0][0]                      
__________________________________________________________________________________________________
multiply (Multiply)             (None, 512)          0           rnn_rh[0][0]                     
                                                                 activation[0][0]                 
__________________________________________________________________________________________________
activation_1 (Activation)       (None, 512)          0           add[0][0]                        
__________________________________________________________________________________________________
add_2 (Add)                     (None, 512)          0           rnn_h[0][0]                      
                                                                 multiply[0][0]                   
__________________________________________________________________________________________________
one_minus (Dense)               (None, 512)          262656      activation_1[0][0]               
__________________________________________________________________________________________________
activation_2 (Activation)       (None, 512)          0           add_2[0][0]                      
__________________________________________________________________________________________________
multiply_1 (Multiply)           (None, 512)          0           activation_1[0][0]               
                                                                 snpe_pleaser[0][0]               
__________________________________________________________________________________________________
multiply_2 (Multiply)           (None, 512)          0           one_minus[0][0]                  
                                                                 activation_2[0][0]               
__________________________________________________________________________________________________
add_3 (Add)                     (None, 512)          0           multiply_1[0][0]                 
                                                                 multiply_2[0][0]                 
__________________________________________________________________________________________________
dense_1_path (Dense)            (None, 256)          131328      add_3[0][0]                      
__________________________________________________________________________________________________
dense_1_left_lane (Dense)       (None, 256)          131328      add_3[0][0]                      
__________________________________________________________________________________________________
dense_1_right_lane (Dense)      (None, 256)          131328      add_3[0][0]                      
__________________________________________________________________________________________________
dense_1_lead (Dense)            (None, 256)          131328      add_3[0][0]                      
__________________________________________________________________________________________________
dense_1_long_x (Dense)          (None, 256)          131328      add_3[0][0]                      
__________________________________________________________________________________________________
dense_1_long_v (Dense)          (None, 256)          131328      add_3[0][0]                      
__________________________________________________________________________________________________
dense_1_long_a (Dense)          (None, 256)          131328      add_3[0][0]                      
__________________________________________________________________________________________________
relu_1_path (ReLU)              (None, 256)          0           dense_1_path[0][0]               
__________________________________________________________________________________________________
relu_1_left_lane (ReLU)         (None, 256)          0           dense_1_left_lane[0][0]          
__________________________________________________________________________________________________
relu_1_right_lane (ReLU)        (None, 256)          0           dense_1_right_lane[0][0]         
__________________________________________________________________________________________________
relu_1_lead (ReLU)              (None, 256)          0           dense_1_lead[0][0]               
__________________________________________________________________________________________________
relu_1_long_x (ReLU)            (None, 256)          0           dense_1_long_x[0][0]             
__________________________________________________________________________________________________
relu_1_long_v (ReLU)            (None, 256)          0           dense_1_long_v[0][0]             
__________________________________________________________________________________________________
relu_1_long_a (ReLU)            (None, 256)          0           dense_1_long_a[0][0]             
__________________________________________________________________________________________________
dense_2_path (Dense)            (None, 256)          65792       relu_1_path[0][0]                
__________________________________________________________________________________________________
dense_2_left_lane (Dense)       (None, 256)          65792       relu_1_left_lane[0][0]           
__________________________________________________________________________________________________
dense_2_right_lane (Dense)      (None, 256)          65792       relu_1_right_lane[0][0]          
__________________________________________________________________________________________________
dense_2_lead (Dense)            (None, 256)          65792       relu_1_lead[0][0]                
__________________________________________________________________________________________________
dense_2_long_x (Dense)          (None, 256)          65792       relu_1_long_x[0][0]              
__________________________________________________________________________________________________
dense_2_long_v (Dense)          (None, 256)          65792       relu_1_long_v[0][0]              
__________________________________________________________________________________________________
dense_2_long_a (Dense)          (None, 256)          65792       relu_1_long_a[0][0]              
__________________________________________________________________________________________________
relu_2_path (ReLU)              (None, 256)          0           dense_2_path[0][0]               
__________________________________________________________________________________________________
relu_2_left_lane (ReLU)         (None, 256)          0           dense_2_left_lane[0][0]          
__________________________________________________________________________________________________
relu_2_right_lane (ReLU)        (None, 256)          0           dense_2_right_lane[0][0]         
__________________________________________________________________________________________________
relu_2_lead (ReLU)              (None, 256)          0           dense_2_lead[0][0]               
__________________________________________________________________________________________________
relu_2_long_x (ReLU)            (None, 256)          0           dense_2_long_x[0][0]             
__________________________________________________________________________________________________
relu_2_long_v (ReLU)            (None, 256)          0           dense_2_long_v[0][0]             
__________________________________________________________________________________________________
relu_2_long_a (ReLU)            (None, 256)          0           dense_2_long_a[0][0]             
__________________________________________________________________________________________________
meta_dense_1 (Dense)            (None, 256)          262400      vision_features[0][0]            
__________________________________________________________________________________________________
dense (Dense)                   (None, 64)           65600       vision_features[0][0]            
__________________________________________________________________________________________________
dense_3_path (Dense)            (None, 256)          65792       relu_2_path[0][0]                
__________________________________________________________________________________________________
dense_3_left_lane (Dense)       (None, 256)          65792       relu_2_left_lane[0][0]           
__________________________________________________________________________________________________
dense_3_right_lane (Dense)      (None, 256)          65792       relu_2_right_lane[0][0]          
__________________________________________________________________________________________________
dense_3_lead (Dense)            (None, 256)          65792       relu_2_lead[0][0]                
__________________________________________________________________________________________________
dense_3_long_x (Dense)          (None, 256)          65792       relu_2_long_x[0][0]              
__________________________________________________________________________________________________
dense_3_long_v (Dense)          (None, 256)          65792       relu_2_long_v[0][0]              
__________________________________________________________________________________________________
dense_3_long_a (Dense)          (None, 256)          65792       relu_2_long_a[0][0]              
__________________________________________________________________________________________________
meta_relu_1 (ReLU)              (None, 256)          0           meta_dense_1[0][0]               
__________________________________________________________________________________________________
elu_1 (ELU)                     (None, 64)           0           dense[0][0]                      
__________________________________________________________________________________________________
relu_3_path (ReLU)              (None, 256)          0           dense_3_path[0][0]               
__________________________________________________________________________________________________
relu_3_left_lane (ReLU)         (None, 256)          0           dense_3_left_lane[0][0]          
__________________________________________________________________________________________________
relu_3_right_lane (ReLU)        (None, 256)          0           dense_3_right_lane[0][0]         
__________________________________________________________________________________________________
relu_3_lead (ReLU)              (None, 256)          0           dense_3_lead[0][0]               
__________________________________________________________________________________________________
relu_3_long_x (ReLU)            (None, 256)          0           dense_3_long_x[0][0]             
__________________________________________________________________________________________________
relu_3_long_v (ReLU)            (None, 256)          0           dense_3_long_v[0][0]             
__________________________________________________________________________________________________
relu_3_long_a (ReLU)            (None, 256)          0           dense_3_long_a[0][0]             
__________________________________________________________________________________________________
dense_1_desire_state (Dense)    (None, 128)          65664       add_3[0][0]                      
__________________________________________________________________________________________________
desire_final_dense (Dense)      (None, 32)           8224        meta_relu_1[0][0]                
__________________________________________________________________________________________________
dense_1 (Dense)                 (None, 32)           2080        elu_1[0][0]                      
__________________________________________________________________________________________________
dense_final_path (Dense)        (None, 128)          32896       relu_3_path[0][0]                
__________________________________________________________________________________________________
dense_final_left_lane (Dense)   (None, 128)          32896       relu_3_left_lane[0][0]           
__________________________________________________________________________________________________
dense_final_right_lane (Dense)  (None, 128)          32896       relu_3_right_lane[0][0]          
__________________________________________________________________________________________________
dense_final_lead (Dense)        (None, 128)          32896       relu_3_lead[0][0]                
__________________________________________________________________________________________________
dense_final_long_x (Dense)      (None, 128)          32896       relu_3_long_x[0][0]              
__________________________________________________________________________________________________
dense_final_long_v (Dense)      (None, 128)          32896       relu_3_long_v[0][0]              
__________________________________________________________________________________________________
dense_final_long_a (Dense)      (None, 128)          32896       relu_3_long_a[0][0]              
__________________________________________________________________________________________________
relu_1_desire_state (ReLU)      (None, 128)          0           dense_1_desire_state[0][0]       
__________________________________________________________________________________________________
desire_reshape (Reshape)        (None, 4, 8)         0           desire_final_dense[0][0]         
__________________________________________________________________________________________________
elu_2 (ELU)                     (None, 32)           0           dense_1[0][0]                    
__________________________________________________________________________________________________
relu_final_path (ReLU)          (None, 128)          0           dense_final_path[0][0]           
__________________________________________________________________________________________________
relu_final_left_lane (ReLU)     (None, 128)          0           dense_final_left_lane[0][0]      
__________________________________________________________________________________________________
relu_final_right_lane (ReLU)    (None, 128)          0           dense_final_right_lane[0][0]     
__________________________________________________________________________________________________
relu_final_lead (ReLU)          (None, 128)          0           dense_final_lead[0][0]           
__________________________________________________________________________________________________
relu_final_long_x (ReLU)        (None, 128)          0           dense_final_long_x[0][0]         
__________________________________________________________________________________________________
relu_final_long_v (ReLU)        (None, 128)          0           dense_final_long_v[0][0]         
__________________________________________________________________________________________________
relu_final_long_a (ReLU)        (None, 128)          0           dense_final_long_a[0][0]         
__________________________________________________________________________________________________
final_desire_state (Dense)      (None, 8)            1032        relu_1_desire_state[0][0]        
__________________________________________________________________________________________________
desire_pred (Softmax)           (None, 4, 8)         0           desire_reshape[0][0]             
__________________________________________________________________________________________________
dense_2 (Dense)                 (None, 12)           396         elu_2[0][0]                      
__________________________________________________________________________________________________
path (Dense)                    (None, 385)          49665       relu_final_path[0][0]            
__________________________________________________________________________________________________
left_lane (Dense)               (None, 386)          49794       relu_final_left_lane[0][0]       
__________________________________________________________________________________________________
right_lane (Dense)              (None, 386)          49794       relu_final_right_lane[0][0]      
__________________________________________________________________________________________________
lead (Dense)                    (None, 58)           7482        relu_final_lead[0][0]            
__________________________________________________________________________________________________
long_x (Dense)                  (None, 200)          25800       relu_final_long_x[0][0]          
__________________________________________________________________________________________________
long_v (Dense)                  (None, 200)          25800       relu_final_long_v[0][0]          
__________________________________________________________________________________________________
long_a (Dense)                  (None, 200)          25800       relu_final_long_a[0][0]          
__________________________________________________________________________________________________
desire_state (Softmax)          (None, 8)            0           final_desire_state[0][0]         
__________________________________________________________________________________________________
meta (Dense)                    (None, 4)            1028        meta_relu_1[0][0]                
__________________________________________________________________________________________________
flatten (Flatten)               (None, 32)           0           desire_pred[0][0]                
__________________________________________________________________________________________________
pose (Activation)               (None, 12)           0           dense_2[0][0]                    
==================================================================================================
Total params: 13,146,045
Trainable params: 13,078,413
Non-trainable params: 67,632
__________________________________________________________________________________________________
&lt;/pre&gt;

&lt;p&gt;What you can see above is a summary of the model output by tensorflow, now let’s see what the lane and path output looks like, so here is a screenshot from my &lt;a href=&quot;https://github.com/littlemountainman/modeld&quot;&gt;openpilot minimal repository&lt;/a&gt;.&lt;/p&gt;
…
